Loading CIFAR-10 dataset
(50000, 32, 32, 3)
(50000,)
(10000, 32, 32, 3)
(10000,)
_________________________________________________________________
Layer (type)                 Output Shape              Param #   
=================================================================
conv2d_1 (Conv2D)            (None, 32, 32, 48)        1344      
_________________________________________________________________
activation_1 (Activation)    (None, 32, 32, 48)        0         
_________________________________________________________________
conv2d_2 (Conv2D)            (None, 30, 30, 48)        20784     
_________________________________________________________________
activation_2 (Activation)    (None, 30, 30, 48)        0         
_________________________________________________________________
max_pooling2d_1 (MaxPooling2 (None, 15, 15, 48)        0         
_________________________________________________________________
dropout_1 (Dropout)          (None, 15, 15, 48)        0         
_________________________________________________________________
conv2d_3 (Conv2D)            (None, 15, 15, 96)        41568     
_________________________________________________________________
activation_3 (Activation)    (None, 15, 15, 96)        0         
_________________________________________________________________
conv2d_4 (Conv2D)            (None, 13, 13, 96)        83040     
_________________________________________________________________
activation_4 (Activation)    (None, 13, 13, 96)        0         
_________________________________________________________________
max_pooling2d_2 (MaxPooling2 (None, 6, 6, 96)          0         
_________________________________________________________________
dropout_2 (Dropout)          (None, 6, 6, 96)          0         
_________________________________________________________________
conv2d_5 (Conv2D)            (None, 6, 6, 192)         166080    
_________________________________________________________________
activation_5 (Activation)    (None, 6, 6, 192)         0         
_________________________________________________________________
conv2d_6 (Conv2D)            (None, 4, 4, 192)         331968    
_________________________________________________________________
activation_6 (Activation)    (None, 4, 4, 192)         0         
_________________________________________________________________
max_pooling2d_3 (MaxPooling2 (None, 2, 2, 192)         0         
_________________________________________________________________
dropout_3 (Dropout)          (None, 2, 2, 192)         0         
_________________________________________________________________
flatten_1 (Flatten)          (None, 768)               0         
_________________________________________________________________
dense_1 (Dense)              (None, 512)               393728    
_________________________________________________________________
activation_7 (Activation)    (None, 512)               0         
_________________________________________________________________
dropout_4 (Dropout)          (None, 512)               0         
_________________________________________________________________
dense_2 (Dense)              (None, 256)               131328    
_________________________________________________________________
activation_8 (Activation)    (None, 256)               0         
_________________________________________________________________
dropout_5 (Dropout)          (None, 256)               0         
_________________________________________________________________
dense_3 (Dense)              (None, 10)                2570      
=================================================================
Total params: 1,172,410.0
Trainable params: 1,172,410.0
Non-trainable params: 0.0
_________________________________________________________________
None
Train on 45000 samples, validate on 5000 samples
Epoch 1/200
  128/45000 [..............................] - ETA: 1040s - loss: 2.3053 - acc: 0.0625
…
