Loading CIFAR-10 dataset
(50000, 32, 32, 3)
(50000,)
(10000, 32, 32, 3)
(10000,)
_________________________________________________________________
Layer (type)                 Output Shape              Param #   
=================================================================
conv2d_1 (Conv2D)            (None, 32, 32, 32)        2432      
_________________________________________________________________
dropout_1 (Dropout)          (None, 32, 32, 32)        0         
_________________________________________________________________
conv2d_2 (Conv2D)            (None, 32, 32, 32)        9248      
_________________________________________________________________
max_pooling2d_1 (MaxPooling2 (None, 16, 16, 32)        0         
_________________________________________________________________
conv2d_3 (Conv2D)            (None, 16, 16, 64)        18496     
_________________________________________________________________
dropout_2 (Dropout)          (None, 16, 16, 64)        0         
_________________________________________________________________
conv2d_4 (Conv2D)            (None, 16, 16, 64)        36928     
_________________________________________________________________
max_pooling2d_2 (MaxPooling2 (None, 8, 8, 64)          0         
_________________________________________________________________
conv2d_5 (Conv2D)            (None, 8, 8, 128)         73856     
_________________________________________________________________
dropout_3 (Dropout)          (None, 8, 8, 128)         0         
_________________________________________________________________
conv2d_6 (Conv2D)            (None, 8, 8, 128)         147584    
_________________________________________________________________
max_pooling2d_3 (MaxPooling2 (None, 4, 4, 128)         0         
_________________________________________________________________
conv2d_7 (Conv2D)            (None, 4, 4, 256)         295168    
_________________________________________________________________
dropout_4 (Dropout)          (None, 4, 4, 256)         0         
_________________________________________________________________
conv2d_8 (Conv2D)            (None, 4, 4, 256)         590080    
_________________________________________________________________
max_pooling2d_4 (MaxPooling2 (None, 2, 2, 256)         0         
_________________________________________________________________
conv2d_9 (Conv2D)            (None, 2, 2, 512)         1180160   
_________________________________________________________________
dropout_5 (Dropout)          (None, 2, 2, 512)         0         
_________________________________________________________________
conv2d_10 (Conv2D)           (None, 2, 2, 512)         2359808   
_________________________________________________________________
max_pooling2d_5 (MaxPooling2 (None, 1, 1, 512)         0         
_________________________________________________________________
flatten_1 (Flatten)          (None, 512)               0         
_________________________________________________________________
dropout_6 (Dropout)          (None, 512)               0         
_________________________________________________________________
dense_1 (Dense)              (None, 2048)              1050624   
_________________________________________________________________
dropout_7 (Dropout)          (None, 2048)              0         
_________________________________________________________________
dense_2 (Dense)              (None, 1024)              2098176   
_________________________________________________________________
dropout_8 (Dropout)          (None, 1024)              0         
_________________________________________________________________
dense_3 (Dense)              (None, 512)               524800    
_________________________________________________________________
dropout_9 (Dropout)          (None, 512)               0         
_________________________________________________________________
dense_4 (Dense)              (None, 10)                5130      
=================================================================
Total params: 8,392,490.0
Trainable params: 8,392,490.0
Non-trainable params: 0.0
_________________________________________________________________
None
Train on 45000 samples, validate on 5000 samples
Epoch 1/25
   80/45000 [..............................] - ETA: 1631s - loss: 2.3030 - acc: 0.0500
…
