[ 1.   1.1  1.2  1.3  1.4  1.5  1.6  1.7  1.8  1.9  2.   2.1  2.2  2.3  2.4
  2.5  2.6  2.7  2.8  2.9  3.   3.1  3.2  3.3  3.4  3.5]
[21  8  0 ...,  1 11  3]
[ 3.1  1.8  1.  ...,  1.1  2.1  1.3]
0.9675
(22000, 32, 32)
(32, 32)
_________________________________________________________________
Layer (type)                 Output Shape              Param #   
=================================================================
input_1 (InputLayer)         (None, 32, 32)            0         
_________________________________________________________________
dense_1 (Dense)              (None, 32, 512)           16896     
_________________________________________________________________
dropout_1 (Dropout)          (None, 32, 512)           0         
_________________________________________________________________
dense_2 (Dense)              (None, 32, 128)           65664     
_________________________________________________________________
dropout_2 (Dropout)          (None, 32, 128)           0         
_________________________________________________________________
flatten_1 (Flatten)          (None, 4096)              0         
_________________________________________________________________
dense_3 (Dense)              (None, 64)                262208    
_________________________________________________________________
dropout_3 (Dropout)          (None, 64)                0         
_________________________________________________________________
dense_4 (Dense)              (None, 32)                2080      
_________________________________________________________________
dense_5 (Dense)              (None, 2)                 66        
=================================================================
Total params: 346,914.0
Trainable params: 346,914.0
Non-trainable params: 0.0
_________________________________________________________________
None
