0.9675
_________________________________________________________________
Layer (type)                 Output Shape              Param #   
=================================================================
input_1 (InputLayer)         (None, 32, 32)            0         
_________________________________________________________________
flatten_1 (Flatten)          (None, 1024)              0         
_________________________________________________________________
dense_1 (Dense)              (None, 128)               131200    
_________________________________________________________________
dropout_1 (Dropout)          (None, 128)               0         
_________________________________________________________________
dense_2 (Dense)              (None, 64)                8256      
_________________________________________________________________
dropout_2 (Dropout)          (None, 64)                0         
_________________________________________________________________
dense_3 (Dense)              (None, 32)                2080      
_________________________________________________________________
dropout_3 (Dropout)          (None, 32)                0         
_________________________________________________________________
dense_4 (Dense)              (None, 16)                528       
_________________________________________________________________
dense_5 (Dense)              (None, 2)                 34        
=================================================================
Total params: 142,098.0
Trainable params: 142,098.0
Non-trainable params: 0.0
_________________________________________________________________
None
Test performance
Loss = 0.1325, acc = 0.9750
0.0
_________________________________________________________________
Layer (type)                 Output Shape              Param #   
=================================================================
input_2 (InputLayer)         (None, 32, 32, 1)         0         
_________________________________________________________________
conv2d_1 (Conv2D)            (None, 30, 30, 8)         80        
_________________________________________________________________
dropout_4 (Dropout)          (None, 30, 30, 8)         0         
_________________________________________________________________
conv2d_2 (Conv2D)            (None, 28, 28, 16)        1168      
_________________________________________________________________
max_pooling2d_1 (MaxPooling2 (None, 14, 14, 16)        0         
_________________________________________________________________
conv2d_3 (Conv2D)            (None, 12, 12, 32)        4640      
_________________________________________________________________
dropout_5 (Dropout)          (None, 12, 12, 32)        0         
_________________________________________________________________
conv2d_4 (Conv2D)            (None, 10, 10, 32)        9248      
_________________________________________________________________
global_average_pooling2d_1 ( (None, 32)                0         
_________________________________________________________________
dense_6 (Dense)              (None, 32)                1056      
_________________________________________________________________
dropout_6 (Dropout)          (None, 32)                0         
_________________________________________________________________
dense_7 (Dense)              (None, 16)                528       
_________________________________________________________________
dense_8 (Dense)              (None, 2)                 34        
=================================================================
Total params: 16,754.0
Trainable params: 16,754.0
Non-trainable params: 0.0
_________________________________________________________________
None
Test performance
Loss = 0.0476, acc = 0.9825
here: 38
here: 152
here: 162
here: 254
here: 265
here: 284
here: 362
here: 406
here: 647
here: 648
here: 673
here: 785
here: 812
here: 830
…
